Source code/CNNs/ESPCN/espcn_div2k_x4.pth (torch, 151758 bytes, 6 tensors)

feature_maps.0.weight f4 [64, 3, 5, 5]
000000 6d e4 77 bd 9e 7d da 3d 34 08 22 bd ce 3d f7 3d
       -0.06052058 0.10668491 -0.039558604 0.12072335
000010 03 1a 6a bd 29 57 bc 3d 17 77 91 bd 9e e7 5c 3d
       -0.057153713 0.09196312 -0.07102793 0.053931825
000020 23 64 8a bd 3c 7c 28 3c da 69 a4 bd 44 1c a3 bd
       -0.06757381 0.010283526 -0.08028002 -0.079643756
000030 e4 88 98 bc e7 99 41 bd 51 c3 17 3d a6 90 e6 3d
       -0.018619962 -0.047265913 0.037051503 0.11258058
000040 d8 a6 0c 3e 10 d5 05 be 5d d2 e3 bd c3 2a 49 3c
       0.13735521 -0.13069558 -0.11124108 0.012278262
000050 b0 7b 73 bd 97 f2 97 bc 8e 0a 7f bd 2d 71 ce 3d
       -0.05944413 -0.018548293 -0.062265925 0.1008018
000060 35 90 93 3d 67 1c 33 3d d8 19 47 bc 27 d2 e7 bc
       0.0720524 0.04372826 -0.012152158 -0.02829845
000070 c5 77 a2 ba 69 c8 f7 bc 05 13 22 bd 49 ac cc bd
       -0.0012395313 -0.03024693 -0.03956892 -0.09993798
000080 e7 d5 d3 bd 3e fb d9 bc 65 7d 67 3d b1 54 67 bb
       -0.10343533 -0.02660906 0.05651607 -0.0035298283
000090 38 06 7d 3d 24 5c be 3d 9b 77 c7 bc 07 bf 49 3d
       0.06177351 0.09294918 -0.024349025 0.049254443
0000a0 09 7f 8b bd b2 fb c4 3d c6 fb 51 3d 80 d4 1b bb
       -0.068113394 0.096183196 0.0512655 -0.0023777783
0000b0 58 01 fc bc bc c6 60 3c 08 4b 0d 3c 42 52 80 bd
       -0.03076236 0.013719257 0.008623846 -0.062656894
0000c0 6e cc cd bc 27 b8 ba 3c 66 0c 35 bd e1 f9 04 be
       -0.025121894 0.022792889 -0.044201277 -0.12985946
0000d0 e6 9a b2 bd 73 ed 9d 3d 42 39 cf 3d 71 89 58 3d
       -0.08720951 0.077113055 0.10118343 0.05286545
0000e0 5e ba 27 bd b5 61 68 3c b3 bf b2 3d 2e 22 c9 3d
       -0.040949218 0.014183451 0.0872797 0.098209724
0000f0 68 e6 3f bd fb 27 9b 3d 53 20 a7 3d 6b 62 d5 bd
       -0.046850592 0.07575985 0.08160462 -0.10419162
000100 8e d5 d0 3d fe 6f 87 3d 72 d8 a6 bc 1e b9 a0 bb
       0.10196982 0.06613158 -0.020366881 -0.00490488
000110 ab 51 01 bd 61 92 da bd d8 7f 82 bd bf 02 09 3c
       -0.031572025 -0.10672451 -0.063720405 0.008362471
000120 7f bf 65 3d fc 02 d3 bd 9c 87 53 bd 7c 70 92 bd
       0.056090828 -0.103033036 -0.051643 -0.07150361
000130 90 ec 47 bc fb cf 25 3d 09 1f 00 3d e2 2c 94 bd
       -0.012202397 0.04048155 0.031279597 -0.07235123
000140 b3 1d 8d bd f0 66 f0 3d cc d6 92 3c 89 8c ba 3c
       -0.0689043 0.11738384 0.017924689 0.02277209
000150 ac f5 3e bd 32 b1 18 3c 0c 0a 8a 3d eb 35 41 bd
       -0.04662101 0.00931959 0.067401975 -0.04717056
000160 ea e9 a6 bb df 68 9a 3d a3 36 17 bd a9 78 9b 3d
       -0.0050938027 0.07539534 -0.03691734 0.075913735
000170 7c 30 f6 3d 47 c9 32 3d c8 8f fb bd 0d 93 f3 bb
       0.120209664 0.043648984 -0.122832835 -0.0074333013
000180 5b cd 73 ba 48 1d a8 3d fa 82 22 bd eb cd e5 bb
       -0.00093003147 0.0820871 -0.03967569 -0.0070130727
000190 9f 60 d0 bd 08 bb 6c 3d 30 47 36 3d 76 15 08 bc
       -0.10174679 0.057795554 0.044501483 -0.008305898
0001a0 1b 87 72 bc 7e 29 b5 3d a1 f2 8d 3c 4f fd 99 3d
       -0.0148027195 0.08845805 0.017327609 0.07519018
0001b0 6e a4 a9 3d 88 64 86 bd 8c ca 9d 3d d2 b6 e8 3d
       0.082833156 -0.065621436 0.077046484 0.11362995
0001c0 7b 0e f4 3c 38 d6 1c 3e 02 81 f1 3d 06 b4 c4 bb
       0.029792061 0.15316093 0.117921844 -0.006002906
0001d0 8d f1 5f 3c d9 65 de bc d1 0a 82 3d b7 7c 04 3e
       0.01366843 -0.027148174 0.06349719 0.129382
0001e0 6e 40 b4 bb 70 92 48 3d e3 98 1c 3d d8 52 7b 3d
       -0.0055008447 0.04896778 0.03823174 0.061358303
0001f0 5a 8f 29 3c 54 28 9a 3c 94 b9 b8 bd 51 27 c7 3c
       0.010349119 0.018818058 -0.09019771 0.02431074
000200 2d 4a d4 bd 23 9f ee bd 78 c9 28 bd fc a6 54 3d
       -0.103657104 -0.11651447 -0.04120776 0.05191706
000210 a5 7d 68 bd 41 85 c4 bd 49 ea c4 3d 96 85 a0 bd
       -0.05676045 -0.09595729 0.09614999 -0.078379795
000220 2e f9 4d bc d6 d8 70 3c d3 9d eb 3c 66 0e 57 bb
       -0.012571616 0.014700135 0.02876178 -0.0032814979
000230 ca 96 fc 3c 8b c6 2a bd be 44 8a 3d 2a 07 56 bd
       0.03083362 -0.04169325 0.06751393 -0.052252926
000240 6b 1e f3 3b 6f df dc bd de eb 5f 3d 9d 30 64 3d
       0.0074193976 -0.10784804 0.0546683 0.055710424
000250 04 72 8f bd 9a 15 14 bd 78 4a c9 bd cb ac e1 3d
       -0.07004169 -0.036153413 -0.09828657 0.11019286
000260 cb e2 d8 ba 69 e6 01 3d 10 10 82 3b 22 ee 4a 3d
       -0.0016547082 0.031713877 0.0039692 0.049543507
000270 f8 7e 8a 3c a1 51 3c bc c2 4e e7 3c be 88 2f 3d
       0.016906247 -0.011494071 0.028235797 0.042855017
000280 bc 8e d9 3d 93 4d 7d 3c 8d 08 7c 3d ed a3 c6 bd
       0.106229275 0.01546039 0.061531592 -0.09699235
000290 4b 5e b0 bd c1 48 61 3c 11 3c 0c bd 22 62 21 be
       -0.08611735 0.013750256 -0.03423697 -0.15760091
0002a0 61 b9 18 be 38 d2 f3 bc 70 b3 c1 bc ef 1f d2 3d
       -0.14914466 -0.029763326 -0.023645133 0.10259997
0002b0 10 f0 95 3d 6d 54 d4 bd c3 39 a1 3d 0e f0 38 3d
       0.07321179 -0.103676654 0.07872345 0.04515081
0002c0 9d 65 2e bd 92 7f ba 3d 9d f0 95 bc 2c 18 61 3d
       -0.042577375 0.09106363 -0.01830321 0.054954693
0002d0 f1 64 cf bd df 08 a4 bb 49 8d de 3d 1e cf 92 bd
       -0.10126675 -0.0050059403 0.10866792 -0.07168411
0002e0 63 9b 84 bd 8b c9 d7 bd e7 db ec 3d 31 b9 78 bc
       -0.0647495 -0.10536488 0.115653805 -0.015180872
0002f0 af 29 82 bd 61 3c d4 3d 73 3b e8 3c d7 90 94 3c
       -0.06355607 0.10363079 0.02834866 0.018135471
000300 35 79 00 be 39 68 79 bd b9 b1 ab 3c 2b 67 3b bd
       -0.12546237 -0.06089041 0.020958768 -0.045752686
000310 cc 8a 5b bc 93 8d 4f bd fd e2 0f bd 99 29 2f 3e
       -0.013399791 -0.050672125 -0.035128582 0.17105712
000320 e6 95 f2 3b 70 99 e3 bc de c7 12 3d 05 9a e2 3d
       0.007403123 -0.027783126 0.03583514 0.11064533
000330 f2 34 5c bd df 06 25 3d 50 d2 98 bd 14 cb b2 bd
       -0.05376143 0.040289756 -0.07461989 -0.0873014
000340 18 51 95 3c 46 e9 61 bb 87 97 1e 3d 47 ec 50 3d
       0.018227145 -0.0034471317 0.038718726 0.05100658
000350 c0 84 9c 3d 77 d0 26 be a6 c0 29 bd b3 e8 af 3d
       0.076425076 -0.1629046 -0.04144349 0.08589306
000360 88 19 11 bd 14 a2 04 be bb e7 aa bd 41 27 22 3d
       -0.03542474 -0.12952453 -0.0834498 0.039588217
000370 71 90 ca 3c fb 8a 2d bb c6 8f b3 3d 46 73 d0 3d
       0.024727078 -0.0026480544 0.08767657 0.10178237
000380 71 c8 27 bc c3 cd 19 3d 7a e3 4e 3d 16 53 7c 3b
       -0.01024066 0.037549745 0.050509907 0.0038501672
000390 d2 70 6b bd c7 17 a5 3d 06 f5 c7 3c fb c9 14 be
       -0.05748064 0.08061176 0.024408828 -0.14530174
0003a0 4c 63 49 bd 1a 36 8f bd 2b 78 97 3c 7a a9 e5 3c
       -0.049166963 -0.06992741 0.018489918 0.028034914
0003b0 ed 01 94 bc 2d df 15 3e 79 02 07 3e 2b 55 2b bd
       -0.018067325 0.14635916 0.13184537 -0.04182927
0003c0 cc 66 84 bd 2a 68 62 3d 84 60 94 bd 66 e0 2b 3d
       -0.064649194 0.05527512 -0.072449714 0.04196205
0003d0 13 80 c4 bd dc 2f a6 3d 28 d3 39 bd d3 33 ca 3b
       -0.09594741 0.08114597 -0.04536739 0.0061707287
0003e0 38 2c 37 3d 50 2a 51 3d e9 0b 67 bb 8a ac b9 3b
       0.044719905 0.051065743 -0.0035254902 0.00566632
0003f0 fc e7 a8 3d 46 e8 4b bc 96 88 dd bd 6d b0 32 bd
       0.082473725 -0.012445515 -0.10817067 -0.043625284

feature_maps.0.bias f4 [64]
000000 1c 00 b1 3d 45 b9 ab be 9b 53 b8 3d fd 67 e2 bd
       0.08642599 -0.33539787 0.090003215 -0.110549904
000010 ce f0 b8 be 59 ef 89 3d 28 33 b4 be 1c b6 fc bb
       -0.3612122 0.06735105 -0.3519528 -0.007712139
000020 85 28 35 bc 63 0f e1 bd 1b e6 0f 3e 8c 5b f5 3d
       -0.011057024 -0.10989263 0.14052622 0.11980352
000030 fa bd 82 3e 28 fe 46 3d 59 0b e5 bd ad 40 94 3d
       0.25535566 0.048582226 -0.11183805 0.072388984
000040 cd 52 25 3d a2 ef d1 ba 3d 46 d6 bd ac 1f ba bd
       0.040362168 -0.0016016851 -0.10462616 -0.09088072
000050 0b b6 8d 3d 9c 90 86 3c c3 c3 78 be 72 10 6b 3e
       0.069194876 0.016426377 -0.24293427 0.22955492
000060 a2 22 2d 3e db f9 24 3e 68 56 a7 be a0 27 9b 3d
       0.16907743 0.16110937 -0.3268311 0.07575917
000070 0c 75 b7 3e 32 03 87 3d 23 99 0d be 1b 68 99 bd
       0.35831487 0.06592406 -0.13827948 -0.0749056
000080 ba d9 89 3d f7 fd d9 be 00 10 48 bd 9c ea 12 3c
       0.06730981 -0.42576572 -0.048843384 0.008967068
000090 c4 4c 95 bd ec fd dd bc ea 52 f9 3d 10 9c 51 3e
       -0.072900325 -0.027098618 0.12174018 0.2046969
0000a0 da 68 df bd 6b 8c 9f bd 6d 00 93 be 90 ef 3e 3f
       -0.10908671 -0.077904545 -0.28711262 0.74584293
0000b0 c5 4f d0 ba 84 2d 2b bd 94 dd d1 3c 47 65 39 bd
       -0.0015892914 -0.041791454 0.025618352 -0.0452626
0000c0 ff fb f1 3d 8d d0 e9 3d 37 77 c3 3e f1 44 cc 3c
       0.118156426 0.11416731 0.3817689 0.024935218
0000d0 88 63 40 be 08 d9 fb bc 60 63 cc 3d f0 4c 7c 3e
       -0.18787968 -0.030743137 0.09979892 0.24638724
0000e0 f3 48 39 3c 2c ee 61 3e 1a b4 c4 3e 85 f0 2f 3e
       0.011308896 0.22063512 0.38418657 0.17181595
0000f0 5c 95 eb 3d 2d f0 63 3c 2f db c9 bb 58 d3 2d bd
       0.115030974 0.013912243 -0.006160162 -0.04243788

feature_maps.2.weight f4 [32, 64, 3, 3]
000000 27 57 5e bd b2 3a 9c 3c 0d ac 6a 3b b8 ff 52 3b
       -0.054282334 0.019070957 0.0035808117 0.0032195877
000010 6d 7c 43 3d ff 43 e6 bc 6b 3b 80 3d 4b 36 ff bb
       0.047726084 -0.028108595 0.06261333 -0.0077884546
000020 81 fe a0 bb 12 78 48 3d d0 06 c3 3a 9f 63 8c bd
       -0.0049131517 0.048942633 0.001487935 -0.06854939
000030 f2 d6 c8 3c b8 3e 45 bd bf 72 95 3c 2d 8a c0 bd
       0.024516556 -0.048155516 0.018243192 -0.09401355
000040 a1 7f 07 3d f4 5e f8 3b c5 52 6a bd 89 5b e5 3c
       0.0330807 0.0075796787 -0.05720784 0.027997749
000050 92 70 8c bb 46 fa df bc 0c 53 bf 3b 76 fc 45 3d
       -0.0042858804 -0.02734102 0.0058387574 0.04833647
000060 25 2c 9a 39 bb 41 20 bd b4 57 0d bb a5 09 01 bd
       0.0002940606 -0.039125185 -0.0021567168 -0.03150334
000070 5a b6 b1 bd 94 e0 5e 3d 45 86 45 3d f3 a4 b7 3d
       -0.08677359 0.054413393 0.048223753 0.089670084
000080 8a fe 05 3d b7 8c d4 bb 30 bd 51 bd 09 13 b1 bd
       0.03271345 -0.006486501 -0.051205814 -0.08646209
000090 f3 87 99 3c 39 a9 3c 3c a4 a5 33 3d 4c e2 04 3d
       0.018741583 0.011514955 0.04385914 0.032442376
0000a0 42 1f a7 3d 11 50 8a 3d 71 63 d0 3c 65 7c 16 3c
       0.08160259 0.06753553 0.025438042 0.009184931
0000b0 20 8f c9 3d 56 7f c2 3d 7e 99 83 bd 51 72 7a bc
       0.09841752 0.09496944 -0.06425761 -0.015286044
0000c0 f0 bf 08 bd 1b a7 1b 3b 5e 70 1f bc 79 e7 e2 3c
       -0.03338617 0.0023750726 -0.00973138 0.027698265
0000d0 8c f8 ed 3b cf aa af 3c 62 e3 96 3d 6f 36 4f 3d
       0.007262295 0.021443753 0.073675886 0.05058902
0000e0 40 0c 99 3d 30 b8 65 3d 2e c7 97 3d ae 84 f6 3d
       0.074730396 0.056083858 0.074110374 0.120370254
0000f0 0c c2 fa 3c 03 e2 9b 3d a9 66 c9 3d dd 48 a6 3d
       0.030610107 0.07611468 0.09834034 0.08119366
000100 48 87 36 bd ae 18 05 3d d5 a5 e8 3b 30 3c ba bd
       -0.044562608 0.03249424 0.007099847 -0.09093511
000110 85 8c 3a ba 69 44 4c 3d 0a 61 14 bd b3 75 56 bc
       -0.0007116276 0.04986993 -0.036225356 -0.013089585
000120 0a ef cf 3d 43 47 f1 3d 20 6e aa bc 09 c7 97 3d
       0.10153015 0.1178117 -0.020804465 0.0741101
000130 9a 20 08 bb 97 77 74 3d d2 79 4b bb cc 29 c7 bd
       -0.0020771385 0.059684362 -0.0031047952 -0.09724769
000140 31 eb b0 bd 78 cb 21 3c 56 ae 09 bd 91 fb 59 3d
       -0.08638609 0.009875171 -0.033613525 0.053218428
000150 d5 38 2c bd 06 e0 85 bc 79 1f 8c 3b 7b a1 b0 3c
       -0.042046387 -0.016342174 0.004276213 0.021561375
000160 16 50 aa bc de dc 77 3c e2 b1 7a 3d 54 cd 38 3c
       -0.020790141 0.015128342 0.0612048 0.011279423
000170 aa 06 d3 bc 09 17 6a bc 02 ad ef 3c 82 e7 bb bc
       -0.025760014 -0.014287719 0.029257301 -0.02293754
000180 e4 8d ee ba 8d c9 f6 38 74 8e 4c 3c e3 71 b0 3d
       -0.0018200246 0.00011767736 0.012485135 0.08615472
000190 46 04 a4 3c 6b a8 26 3b 83 ed be bc 62 8e a5 39
       0.020021569 0.0025429975 -0.023306614 0.00031577336
0001a0 21 51 58 bd c2 09 2d bc 4d 1a a4 3d 24 99 92 ba
       -0.052811746 -0.0105614085 0.08012829 -0.0011184555
0001b0 25 82 0f bd 6d 8a 59 3a 96 e0 58 bb b0 b9 4a 3d
       -0.035036225 0.000829852 -0.0033092848 0.04949349
0001c0 f6 46 04 bc 7d 1a 8d 3d c1 fd 42 3d 45 4e c8 3c
       -0.008073559 0.06889818 0.04760528 0.024451384
0001d0 d5 94 43 bb a4 cc 73 b9 ba f0 0e bc 9c 85 fa 3c
       -0.002984335 -0.0002325052 -0.008724386 0.030581288
0001e0 7e ee 5f 3d 65 44 65 bc 86 44 c3 3d 23 2d b1 3d
       0.054670803 -0.013993357 0.09534554 0.08651187
0001f0 72 8a 75 bd 76 83 2a bd f0 32 a0 bb e3 23 31 3d
       -0.059946485 -0.041629277 -0.0048888847 0.043247115
000200 72 7e 2e bd 96 28 ca 3c 59 8b 26 bd 02 1c 00 bd
       -0.042601056 0.024677556 -0.040660236 -0.03127671
000210 4a 32 95 bd a6 b1 9a 3c 75 26 c9 bd 55 40 e4 bb
       -0.072849825 0.018883538 -0.09821788 -0.006965677
000220 ef 03 23 bd 39 e3 0e bd 72 03 34 3c d9 55 be bd
       -0.039798673 -0.034884665 0.01098715 -0.09293718
000230 29 7c 74 3d 7f 79 30 3d ed 04 4f bd 9a 99 03 3d
       0.05968872 0.043084618 -0.050541807 0.032128908
000240 74 e7 87 3d 3b 43 3a 3c 2d b0 cf 3a 4f 06 e4 3c
       0.06635943 0.011368568 0.0015845351 0.02783504
000250 eb a7 62 3d a4 60 76 bd 91 35 81 3c fd e3 a7 bc
       0.05533592 -0.060150757 0.015772613 -0.020494455
000260 d6 24 27 bd f3 fd 89 bb d5 31 39 bd 55 80 5a bd
       -0.040806614 -0.0042111813 -0.04521354 -0.053345043
000270 67 b9 17 bd c5 2a dd bc 6e fd 3a bd a2 ce 9f bc
       -0.037042048 -0.026997933 -0.045651846 -0.01950771
000280 92 32 00 bc 63 c1 b8 bc 14 b0 be 3c b1 6c 8b bd
       -0.007824557 -0.022553151 0.02327732 -0.068078406
000290 c8 64 4e bd e9 fe 7a 3d 94 d6 a3 3b a6 f0 6a bd
       -0.05038908 0.061278258 0.004999945 -0.057358406
0002a0 79 d5 cb bb 46 69 61 3d 8b 7d 08 3b 21 25 94 bc
       -0.0062205163 0.055032037 0.0020826783 -0.01808411
0002b0 5c 03 33 3d 2b fe d2 3b 74 c4 e3 3b 3a ad 0d bd
       0.043704376 0.0064389906 0.0069509093 -0.03458903
0002c0 a1 dc a2 3a 97 7a 02 3d 29 f2 27 bd 7e 8c 21 3d
       0.0012425372 0.031855192 -0.041002426 0.039440624
0002d0 99 75 c6 bc 1a d9 03 bd bf 84 d4 3c 54 c1 86 3a
       -0.024225997 -0.032189466 0.025942205 0.0010281005
0002e0 30 6c d7 bc 83 92 45 3c 27 d4 6e bd a3 ab ec bc
       -0.026296705 0.012058857 -0.058307793 -0.028890437
0002f0 fc f7 a8 3a ad 37 8a 3c e7 2c a0 bd 13 d6 c5 3c
       0.0012891288 0.016872251 -0.078210644 0.02414993
000300 9b b7 64 3d 92 a4 b5 bd c7 93 28 3d a6 4a 02 bd
       0.055839162 -0.0886928 0.041156556 -0.03180947
000310 6c 99 f3 3a 20 71 f7 3c 34 78 76 bc c1 f8 25 bb
       0.0018585152 0.03020531 -0.015043307 -0.002532527
000320 ba a0 03 3d 9c c8 ca bc 37 d4 6f bd 51 ae 04 bc
       0.032135703 -0.024753861 -0.058551993 -0.008098201
000330 21 b5 bc bc d8 47 68 bd 4a e0 0a 3d 99 d7 f2 bc
       -0.023035588 -0.05670914 0.033905305 -0.02964382
000340 08 e9 21 3d c1 24 00 3d 88 8e eb bc 56 eb aa bc
       0.039528877 0.03128505 -0.028754488 -0.02086417
000350 d5 be 4e 3b 22 10 e1 bb 5f 0d 36 bd c6 6b a7 3a
       0.003154685 -0.0068683783 -0.044446345 0.0012773208
000360 f6 5a 07 3d ef 93 8d 3d a8 a5 55 bc 8c 7f 2f bd
       0.03304573 0.06912982 -0.013039984 -0.042846248
000370 df 01 14 3c ff 60 fe 3c b3 c7 d8 3d e9 2c 93 3d
       0.009033649 0.03105211 0.105849646 0.071863
000380 5a b9 a7 3b 59 2c 1d bc f6 22 a7 3c 13 d3 82 bd
       0.005118531 -0.009593093 0.020402413 -0.063879155
000390 db 0a fa bc c2 b2 05 3d 31 53 96 3d ad c1 23 3d
       -0.030522754 0.03264118 0.07340086 0.039979625
0003a0 70 fc ef 3b 50 0e cc 3c 3b 1c 8b 3d f4 5f 7f 3d
       0.007323794 0.024909168 0.06792494 0.062347367
0003b0 35 6a 5f 3d ce 8c 66 3d bc 24 6d 3d 09 11 90 3d
       0.054544646 0.056286626 0.05789636 0.07034499
0003c0 ef a2 28 3d f7 03 85 3d 09 d3 05 3d 3c 06 8a 3d
       0.04117101 0.06494897 0.032671962 0.0673947
0003d0 2f 2e 3c bc f0 28 c2 ba 11 c0 23 bc f2 77 fa bb
       -0.01148562 -0.0014813226 -0.009994523 -0.007643693
0003e0 f3 60 2d 3d 33 d7 d0 bc a3 e8 ac 3b 2f 83 c2 3c
       0.042328786 -0.02549324 0.005276756 0.023744194
0003f0 89 0f 71 bd 16 25 dc bd 23 a8 86 3a 04 25 23 3b
       -0.058852706 -0.10749261 0.0010273497 0.002489389

feature_maps.2.bias f4 [32]
000000 c9 23 91 3d 91 d3 78 3d a7 02 8f bd 8c a3 2d be
       0.070869036 0.06074864 -0.06982928 -0.1695692
000010 b6 84 06 3e 07 56 a0 bd 7f f9 3f 3c f5 a2 b8 3c
       0.13136563 -0.078289084 0.011717199 0.022538641
000020 85 5e 1f bd 79 d7 9f bd c6 d6 1d bc a7 e3 b2 bd
       -0.0389085 -0.0780477 -0.0096337255 -0.087348275
000030 e8 39 48 3d e1 49 a8 3d 9b 6a b3 3c d7 14 05 3c
       0.04888335 0.08217216 0.02190142 0.008122644
000040 7c 50 b5 3d 3d 25 32 bd bd 43 83 3d 29 cb 02 3e
       0.08853242 -0.043492544 0.064094044 0.12772812
000050 d6 24 d8 bc 55 c9 b8 bb 60 8d 83 3d 4f 81 0f 3a
       -0.026384752 -0.005639235 0.064234495 0.00054742856
000060 b4 1c 57 bd dd 5b 87 3d 42 9b 87 bd 9b 36 65 bc
       -0.052517608 0.066093184 -0.0662141 -0.01399007
000070 98 84 17 3d 3b ac a6 3c ac c5 ab 3d ce ce 65 bc
       0.036991686 0.020345798 0.08387312 -0.014026357

sub_pixel.0.weight f4 [48, 32, 3, 3]
000000 0a c3 95 3c ac cd 8e 3d b3 4e fd 3c 6f d6 4a 3d
       0.018281478 0.069728225 0.030921316 0.049520906
000010 0b 21 00 bd e0 d4 a6 3b 97 01 2d bc c1 15 b1 3c
       -0.031281512 0.0050912946 -0.010559461 0.021616818
000020 9f 15 91 bc 31 4e 70 3c 16 35 cb bb 81 55 33 bd
       -0.017710505 0.01466708 -0.0062013967 -0.043782715
000030 c8 40 76 3d b7 63 0f bd 11 c7 70 bd 9b d6 8a 3d
       0.060120374 -0.035007205 -0.058783595 0.06779214
000040 cb 93 55 3d dc ce 27 3c a2 2b dc bb ef ef d0 bd
       0.0521429 0.01024219 -0.0067190686 -0.10202014
000050 b5 09 64 3c c0 93 66 bd cd ae a7 bd 92 72 49 bc
       0.01391833 -0.05629325 -0.081876375 -0.012295382
000060 d1 cd 9c bb 26 9b fc bc 46 08 6e 3d 28 0e e9 bc
       -0.0047852774 -0.0308357 0.05811336 -0.028449133
000070 3d 3b ac bc 59 30 b6 bc fb 1f ad bd c4 84 0c bd
       -0.02102434 -0.02223985 -0.084533654 -0.034306303
000080 c6 a2 61 3b c2 77 2f bd 98 7f 37 3d 47 a2 da bc
       0.0034429296 -0.04283882 0.044799417 -0.026688708
000090 da 1e 13 3e 84 e6 c2 3d 76 90 5e 3d e4 37 d9 3d
       0.14367238 0.095166236 0.054336987 0.106063634
0000a0 1b 90 10 3e b1 a3 a8 3d cb cc cd 3c e3 f0 bb 3d
       0.14117472 0.08234347 0.025122067 0.09176805
0000b0 28 d8 f0 bb 37 4c 62 bd ed 9a d5 bd 42 54 8b 3c
       -0.0073499866 -0.055248465 -0.104299404 0.01700795
0000c0 e6 b5 1f 3c b8 3e f6 bd 55 09 a6 bc 43 48 f3 3c
       0.009747958 -0.120236814 -0.020268122 0.029697543
0000d0 7c 9f 24 3d 06 59 37 3c 19 e0 1c be a9 dc 15 be
       0.04019116 0.011190658 -0.15319861 -0.14634956
0000e0 0a eb 53 bd ea 22 bd bd 9a ec 1c be 68 5b 8c bd
       -0.051737823 -0.09235175 -0.15324631 -0.06853372
0000f0 f4 c3 8e bd d1 f2 57 bd 6b 1f 22 bd 10 9a 3e 3d
       -0.06970969 -0.052721802 -0.039580744 0.046533644
000100 36 f8 0d bb 55 05 7a bc b2 13 f5 3c e8 37 83 3d
       -0.0021662838 -0.01526006 0.029916618 0.06407148
000110 40 95 74 bd ce 5b e8 bb 73 bd 57 bc c0 48 e3 ba
       -0.05971265 -0.007091022 -0.013167727 -0.0017340407
000120 8a f7 c0 bc 56 f1 34 3d 4f c4 7d 3c 69 c5 60 bc
       -0.023555536 0.04417547 0.015488698 -0.013718941
000130 31 9d 83 3c 82 cf b2 3b 09 44 11 3c 60 78 24 bc
       0.016066166 0.0054568658 0.0088663185 -0.010038465
000140 66 e5 ba 3c 42 47 82 bb 3c 94 a1 3c 30 2e e2 3c
       0.022814464 -0.0039757797 0.019724004 0.027609915
000150 0a 56 02 bd 1f 6a df bc f0 04 8c bb bf 21 96 3a
       -0.031820334 -0.027272282 -0.0042730495 0.0011454149
000160 3b 5b 81 3d 2c 20 f6 bc 38 48 8c bd 36 f1 04 3c
       0.06316229 -0.030044638 -0.06849712 0.00811415
000170 3c 00 2f 3d 1a 66 81 bc c1 ff 94 bd ba 4d 1b bd
       0.042724833 -0.015795756 -0.07275344 -0.037915923
000180 75 eb b3 3a b9 6d 3c bd 74 e7 e8 3c 13 0f 10 3c
       0.0013726788 -0.046003077 0.028430678 0.0087926565
000190 26 98 37 bd 0f 00 3a 3c 58 bb ad bd db d1 29 bd
       -0.044822834 0.011352553 -0.084829986 -0.0414599
0001a0 75 44 38 bc 4b 6c 68 bb 23 fc b8 3c 1f 62 49 ba
       -0.01124679 -0.0035464938 0.022581166 -0.00076821627
0001b0 c7 9f 42 3d a6 b4 1a bd 13 40 be 3c 4a 1e 32 bd
       0.047515657 -0.037769936 0.023223912 -0.043485917
0001c0 32 3c 0c bc c4 75 57 3d c0 2a 02 3d 8f c5 9a 3d
       -0.008559274 0.052602544 0.03177905 0.075572126
0001d0 a0 ec 15 bd 9c 27 84 bd c9 ad 91 bd 05 11 bc 3c
       -0.036602616 -0.064528674 -0.07113225 0.022957334
0001e0 96 53 63 bd ba 2c 95 bb 8c 2c 15 bd 7c 0a ae 3c
       -0.055499636 -0.004552451 -0.036419436 0.021245234
0001f0 cd 2a 58 bd e8 24 09 3b 16 93 2d bc 6a c6 5d bd
       -0.052775193 0.002092654 -0.01059415 -0.0541443
000200 2c cd 97 3c 71 71 b6 bc 58 68 80 bd f4 b4 03 3d
       0.01853045 -0.02227089 -0.06269902 0.032154992
000210 c2 c5 08 3d 1c 2c 1f bd 3e dd 77 3c 79 8e 63 3c
       0.03339172 -0.038860425 0.015128432 0.013888949
000220 0c 02 89 bd 7d 31 bc 3c 17 d9 03 bd 5e 25 38 3d
       -0.066898435 0.022972817 -0.032189455 0.04495751
000230 bd 47 5b bd 7d b7 45 bd da ba ef 3b e4 bc e1 bc
       -0.05353521 -0.04827069 0.0073159756 -0.02755589
000240 86 25 05 bd f7 51 a1 3c 21 c5 8e 3c 66 7b a3 bd
       -0.03250649 0.019692404 0.017427983 -0.07982521
000250 a0 f2 91 bd 61 9e 10 3c 4f f2 25 3d 67 c3 ae 3b
       -0.07126355 0.008826823 0.040514287 0.0053333524
000260 28 d9 91 bc e9 cc 7a 3c e6 75 04 bd 7e 92 a5 3d
       -0.017803743 0.015307643 -0.032339 0.08084582
000270 60 02 1b bc 35 e2 56 3c 48 60 b6 bc d8 63 08 3d
       -0.009461015 0.013115455 -0.022262707 0.033298343
000280 3d 48 9f 3d 04 c8 23 3c e6 9f 09 bd 99 bb 13 3d
       0.0777745 0.009996418 -0.033599757 0.03606758
000290 65 78 5f bc 33 d3 c6 3c c4 87 01 bd 4a 93 9d 3c
       -0.013639544 0.02427063 -0.031623617 0.019235272
0002a0 97 90 d1 bb 0c be 11 bd 45 4e 26 3d b9 ef d9 3c
       -0.0063954103 -0.035581633 0.040601987 0.026603566
0002b0 a9 a2 be bc e6 8c 1d bd 11 41 64 bd 00 0c 31 3d
       -0.023270922 -0.03846445 -0.055726115 0.043224335
0002c0 0e a8 1d bd bf e5 47 bd 51 f3 9f 3d e6 64 35 3d
       -0.038490348 -0.048803087 0.07810081 0.044285677
0002d0 3e 59 0e 3d 15 d7 89 3c ff fa 46 bd b7 83 90 3d
       0.034753077 0.016826192 -0.048579212 0.070563726
0002e0 c6 38 a9 bc 00 62 1c ba ab 21 b5 b8 d1 bd cc bc
       -0.020656954 -0.0005965531 -8.637024e-05 -0.024992855
0002f0 2a 74 8b 3d de f7 db 3c e2 4c 24 bd fb b1 57 bc
       0.06809266 0.02685159 -0.040112384 -0.013164992
000300 d3 cc 85 3d 85 96 10 3c 39 d9 85 bc 9a 15 6e 3c
       0.06533208 0.008824949 -0.016338931 0.014531517
000310 4b 6d 07 bd 9f af 5b 3d e5 9a 72 bd e7 fc bc bd
       -0.033063214 0.053634282 -0.05922975 -0.09227925
000320 a2 7a 56 bc 4c c2 ca 3b c4 9c c7 3d e4 bb dd 3d
       -0.013090761 0.006187713 0.097466975 0.10826853
000330 ee 77 20 bd 58 a5 a6 bc b9 60 9b 3c fa db 8b bd
       -0.039176874 -0.020342514 0.01896702 -0.068290666
000340 fe 1b ce 3c 0c 5d 8f 3b 5e f0 46 3d 9d 0b a7 3c
       0.025159832 0.0043751057 0.048569076 0.02039128
000350 2a f5 31 bb a1 c3 ee bb 8d 6e 92 3a c1 30 f5 bc
       -0.0027154186 -0.0072865044 0.0011171863 -0.029930474
000360 a2 b6 c0 3c 4e 87 11 bc 1b 67 15 3d 82 c2 be 3c
       0.023524586 -0.008882357 0.036475282 0.023286108
000370 d5 83 ad bd 30 be 4f bd 83 b0 b1 bc 81 92 06 3c
       -0.084724106 -0.050718486 -0.021690613 0.00821364
000380 32 03 1a bc 94 bc 70 3c d8 a8 09 3d 26 66 45 3c
       -0.009400176 0.014693398 0.033608288 0.01204828
000390 03 ed bc 3b 41 21 52 3c 7a 84 54 3d 52 4e 06 3d
       0.0057655587 0.012825311 0.051884152 0.032789536
0003a0 a1 c8 aa 3c d1 9a 52 3c 66 24 aa 3c 52 f0 7a bd
       0.02084762 0.012854294 0.02076931 -0.061264344
0003b0 c6 ab f2 3c 05 03 20 bd 3f d1 36 bc bd be 8d 3b
       0.029622924 -0.03906538 -0.011158287 0.0043257163
0003c0 52 d9 e2 3a 1a 13 dd 3c fb 51 fd bc 4a df ef bd
       0.0017307198 0.026986647 -0.03092288 -0.11712511
0003d0 5f 0f 80 bb f6 8b 18 3c b7 90 85 3d 54 d7 b6 bc
       -0.0039080824 0.009310713 0.06521743 -0.022319473
0003e0 90 63 10 3d 59 64 6e 3d 2b fe 8b 3c 29 9a 0c 3c
       0.0352512 0.058201168 0.01708897 0.0085816765
0003f0 17 04 64 bb e2 ec 79 bc c5 3b 1a 3d 25 0e 6e bc
       -0.0034792477 -0.015254231 0.037654657 -0.0145297395

sub_pixel.0.bias f4 [48]
000000 86 3f dc 3d 48 5b 03 3e ec bd 06 3e b2 4a bf 3d
       0.10754304 0.1282779 0.13158387 0.09340419
000010 3d d5 10 3e 81 1d c4 3d 22 fb c6 3d a8 5c ba 3d
       0.14143844 0.0957594 0.097158685 0.09099704
000020 93 ac f0 3d 25 1e 07 3e 13 e0 be 3d 80 c0 01 3e
       0.11751666 0.13195093 0.093200825 0.12671089
000030 3b ba e4 3d 85 09 f6 3d 1b 06 20 3d 4e b5 08 3e
       0.11168333 0.120135345 0.039068323 0.13350412
000040 a8 fb 2b 3e 60 ab 42 3e 6a 52 0e 3e b0 6c 9c 3d
       0.16795218 0.19010687 0.13898626 0.07637918
000050 89 74 3b 3e b2 b6 02 3e c3 14 46 3e 75 99 46 3e
       0.18306173 0.12765005 0.19343857 0.19394477
000060 ea c3 20 3e 40 c9 4c 3e f4 aa fc 3d 18 62 2d 3e
       0.15699735 0.19998646 0.12337294 0.16931951
000070 a4 3d 3e 3e 41 c1 1d 3e 9d c1 31 3e 98 71 31 3e
       0.18578202 0.15405752 0.17359014 0.17328489
000080 1b f5 33 3e 04 aa 22 3e 2f 72 12 3e 5d 5a f0 3d
       0.17573969 0.15885168 0.1430137 0.117359854
000090 b8 d3 05 3e d8 12 ec 3d 30 25 d8 3d 30 ac 1d 3e
       0.13069046 0.11527032 0.10553968 0.15397716
0000a0 7c 44 f6 3d 0c 13 03 3e 02 ec 1f 3e 0d c8 22 3e
       0.12024781 0.12800235 0.15617374 0.15896626
0000b0 5c c9 cb 3d d2 01 9d 3d 1d 46 03 3e d0 03 d8 3d
       0.09950516 0.07666363 0.12819715 0.10547602
